model/convnet_mnist.pt (torch, 29345 bytes, 8 tensors)

net.0.weight f4 [6, 1, 5, 5]
0.13795441 0.11832077 0.099487595 0.10347847 0.3189223 0.22891355 0.19443166 0.31926668
0.23306064 0.088159755 0.09602381 0.048732087 0.28396526 0.1301084 0.12710626 -0.40911636
-0.36216575 -0.32543427 -0.22140302 -0.23613387 -0.4593827 -0.5952574 -0.72704995 -0.43863675
-0.21197464 0.17745711 0.3771228 0.25933394 -0.20596611 -0.39482057 0.3070056 0.16088498
-0.059634767 -0.23781061 -0.3692199 0.2656817 0.29090926 -0.07961209 -0.38451988 -0.21310243
0.039834064 0.20381267 -0.009665642 -0.001974667 -0.10562627 -0.060082998 0.0037860635 0.059065145
0.027294999 -0.009135816 -0.15012878 -0.23025012 -0.1480392 -0.13596372 -0.014728763 -0.07366202
-0.40346095 -0.3263479 -0.030132616 -0.021455016 -0.18996297 -0.23927249 0.0014857372 0.2619346
0.060802322 0.2466842 0.39856654 0.37916672 0.055275727 0.10870984 0.1948377 0.33254033
0.23686884 -0.017600395 -0.04036112 -0.08893086 0.29210564 -0.13066918 -0.48079416 -0.25555015
-0.09075074 0.36379743 0.05866988 -0.37323332 -0.22069561 -0.20136337 0.21452785 0.24347991
-0.0102446675 0.15184209 -0.16365473 -0.06411534 0.13581455 0.38642552 -0.08928019 -0.041704144
0.20775613 0.050861586 0.19889037 -0.19847451 0.058652002 -0.4147115 -0.3694493 -0.24777968
-0.06406145 0.17797112 0.26758206 -0.15581885 -0.0024447248 -0.1307862 0.27034643 0.45021173
0.40259826 0.12115543 0.021563536 -0.13237293 -0.035687495 0.2204367 0.040477574 0.12587059
-0.38092408 -0.23535903 -0.069217876 -0.056800645 0.06911647 -0.1311034 -0.1379755 0.120467275
0.27915156 0.27999777 -0.30014566 -0.26244828 -0.14857571 -0.034459885 0.37033486 -0.28788432
-0.38470203 -0.2295151 0.20088138 0.25591946 -0.21577957 -0.18590593 0.049402867 0.1279127
0.13200706 -0.24043484 -0.08978647 0.0037653912 0.19402525 0.18123497
00000000: ec43 0d3e 2952 f23d 27c0 cb3d 85ec d33d
00000010: c949 a33e 5068 6a3e 1819 473e ec76 a33e
00000020: 73a7 6e3e 1a8d b43d 22a8 c43d 4c9b 473d
00000030: e563 913e 233b 053e 2528 023e b377 d1be
00000040: ca6d b9be 529f a6be 79b7 62be 14cd 71be
00000050: 3634 ebbe ca62 18bf f21f 3abf ff94 e0be
00000060: e10f 59be 51b7 353e 3d16 c13e 6bc7 843e
00000070: c8e8 52be ec25 cabe d72f 9d3e 08bf 243e
00000080: 9643 74bd a084 73be 640a bdbe 6f07 883e
00000090: 0ff2 943e aa0b a3bd cadf c4be 8637 5abe
000000a0: 0b29 233d 45b4 503e a45c 1ebc 6a69 01bb
000000b0: 9652 d8bd 9719 76bd 9b1f 783b 4bee 713d
000000c0: c399 df3c 64ae 15bc 5cbb 19be b0c6 6bbe
000000d0: 9797 17be 133a 0bbe e950 71bc 1ddc 96bd
000000e0: 6f92 cebe 1217 a7be add8 f6bc 6ec2 afbc
000000f0: a785 42be d903 75be 11bd c23a 4b1c 863e
00000100: db0b 793d c89a 7c3e ea10 cc3e 2422 c23e
00000110: cd68 623d 44a3 de3d 8983 473e ba42 aa3e
00000120: bf8d 723e b42e 90bc b451 25bd 6221 b6bd
00000130: df8e 953e 24ce 05be a72a f6be 78d7 82be
00000140: 86db b9bd a843 ba3e d44f 703d 7018 bfbe
00000150: 08fe 61be 3332 4ebe 30ad 5b3e cc52 793e
00000160: 40d9 27bc 7e7c 1b3e 1b95 27be e74e 83bd
00000170: f812 0b3e 91d9 c53e 88d8 b6bd f7d1 2abd
00000180: 06be 543e 3d54 503d eba9 4b3e e73c 4bbe
00000190: 153d 703d 1155 d4be 7528 bdbe f5b9 7dbe
000001a0: a632 83bd 103e 363e 8400 893e fa8e 1fbe
000001b0: ad37 20bb d1ec 05be d96a 8a3e 2782 e63e
000001c0: 5c21 ce3e 5720 f83d 03a6 b03c c58c 07be
000001d0: 0d2d 12bd 29ba 613e d0cb 253d 38e4 003e
000001e0: 7b08 c3be f501 71be 1ac2 8dbd cba7 68bd
000001f0: f08c 8d3d f83f 06be 7349 0dbe 8cb7 f63d
00000200: f4ec 8e3e de5b 8f3e b1ac 99be 9f5f 86be
00000210: 3b24 18be cf25 0dbd 889c bd3e 9365 93be
00000220: aaf7 c4be 0206 6bbe d9b3 4d3e e007 833e
00000230: 52f5 5cbe 205e 3ebe a95a 4a3d 8cfb 023e
00000240: dc2c 073e 8d34 76be f8e1 b7bd c8c4 763b
00000250: 8eae 463e a995 393e

net.0.bias f4 [6]
0.042990252 -0.028233519 0.1835288 0.024403224 -0.102381945 -0.015586553
00000000: 8c16 303d fb49 e7bc f9ee 3b3e 45e9 c73c
00000010: a0ad d1bd be5e 7fbc

net.3.weight f4 [6, 6, 5, 5]
0.026095 -0.16318212 -0.08768077 -0.011307321 0.11600584 -0.10178688 -0.13932432 0.18813396
0.32171115 0.29236028 -0.1028189 -0.024307216 0.119346984 0.20943888 0.26989794 -0.112138174
-0.11232418 -0.022053894 0.12587558 0.001463581 -0.030196508 0.03718819 0.112785704 0.027884724
-0.060229674 0.12753277 0.13058089 0.13843513 -0.052263696 0.04276131 0.044694487 -0.1038342
-0.016368853 0.031724956 0.104928166 -0.24355412 -0.14444473 -0.12177051 -0.09203849 0.04069485
0.037083793 -0.06331712 0.0039514224 -0.16936198 -0.17891926 -0.019231435 -0.10797663 -0.10831669
0.03235937 -0.13047181 -0.18265599 -0.14194039 0.06439997 0.19298057 0.05023616 -0.05370324
0.10223088 0.20006776 0.17784572 0.1263593 0.100946605 0.13370831 -0.049434796 -0.021280592
-0.09901482 0.13846676 0.057991046 0.10573343 0.057324376 0.045092225 -0.020318855 0.09638416
0.02391692 0.03744763 0.13323851 -0.11382152 -0.055186346 0.026267095 0.0051952237 -0.024754418
-0.059071857 -0.010571547 0.037375692 0.07918787 0.046560254 -0.014868317 0.027667984 0.012289649
-0.059851654 -0.030815547 -0.06494437 0.21322083 0.10049 -0.013230736 -0.08132643 0.14180568
0.14045303 0.13599913 0.074693725 0.046735883 -0.09144086 -0.10031595 -0.0073262574 -0.05609591
0.08895173 0.013633328 -0.12149113 -0.057572566 0.13382883 0.1903978 -0.024886997 0.09090169
0.11825584 0.1585149 0.32734165 -0.07232869 0.12299595 0.19418289 0.39359713 0.16375908
0.014441 0.116574205 0.16821952 0.13722019 -0.0073774955 -0.017509477 0.063876 0.022233807
0.16637559 -0.12019643 -0.03883183 -0.08082048 -0.040511794 0.023215592 -0.22319378 0.03596811
-0.15956314 -0.06967005 -0.03652196 -0.14366044 -0.07495867 -0.18279439 -0.17889765 -0.13663633
-0.013342004 -0.024410957 -0.07557183 -0.0614039 -0.08585162 -0.15860716 -0.34722653 -0.227403
-0.081861585 0.05535773 0.07312178 -0.21184026 -0.38952586 -0.27342495 -0.042614233 -0.036327656
-0.1013516 -0.49610257 -0.5711883 -0.19913639 -0.22256254 0.05657945 -0.009475583 -0.012845609
0.06592806 0.09026967 -0.045876436 -0.05810886 0.05097929 0.0034472728 0.06031376 -0.1377912
-0.041994207 -0.008059424 -0.08729317 -0.05151356 0.008265299 0.09123738 0.11821952 0.04484335
0.0052020047 0.09839032 0.14403933 0.19314796 0.11978909 0.17646293 0.0066023953 0.04768542
0.222321 0.090009205 0.082448594 -0.079412386 -0.15925793 0.032137338 -0.02788338 0.040055968
0.24231388 0.09901186 0.13787296 0.21993798 0.096494935 0.13640797 0.032499675 0.03540344
-0.0032654724 -0.004822747 -0.26896748 -0.24889438 -0.16496354 -0.05891062 -0.08856509 -0.16480733
-0.20512645 -0.20426418 0.05146323 0.029119942 0.09560977 -0.016375843 -0.20677198 -0.08336905
0.052031085 0.19924848 0.075090446 0.1821847 0.104248375 0.15897655 0.19253859 0.1545965
0.20538692 0.08778242 0.07316787 0.13427867 0.14821178 0.14074887 0.11606149 -0.077137925
-0.024680026 0.1213424 0.14629424 0.17648382 0.025144102 -0.0056283697 -0.0415103 0.277941
0.10434284 -0.0038428165 0.07166185 -0.017392814 0.013064256 0.1450297 0.031997744 0.095364556
00000000: 2ec5 d53c 3719 27be fa91 b3bd 5742 39bc
00000010: 7894 ed3d a475 d0bd 09ab 0ebe 30a6 403e
00000020: 53b7 a43e 3fb0 953e b792 d2bd ed1f c7bc
00000030: 316c f43d 2577 563e 1030 8a3e b3a8 e5bd
00000040: 380a e6bd 5eaa b4bc 87e5 003e a1d5 bf3a
00000050: ab5e f7bc a552 183d 31fc e63d 816e e43c
00000060: 64b3 76bd f397 023e ffb6 053e f0c1 0d3e
00000070: 7512 56bd 7c26 2f3d 9111 373d 06a7 d4bd
00000080: f917 86bc 07f2 013d 94e4 d63d 4066 79be
00000090: 52e9 13be d162 f9bd ad7e bcbd a5af 263d
000000a0: 2de5 173d 68ac 81bd ef7a 813b 3a6d 2dbe
000000b0: 9c36 37be 3e8b 9dbc da22 ddbd 24d5 ddbd
000000c0: 428b 043d 679a 05be 2c0a 3bbe d258 11be
000000d0: 22e4 833d b39c 453e 6fc4 4d3d eef7 5bbd
000000e0: 6c5e d13d 90de 4c3e 301d 363e 5564 013e
000000f0: 18bd ce3d d5ea 083e 247c 4abd a354 aebc
00000100: 48c8 cabd 3bca 0d3e 0588 6d3d c58a d83d
00000110: f7cc 6a3d a0b2 383d ba73 a6bc 0f65 c53d
00000120: 6bed c33c b062 193d ad6f 083e 421b e9bd
00000130: 140b 62bd 172e d73c b23c aa3b c7c9 cabc
00000140: 55f5 71bd 4834 2dbc 4117 193d 402d a23d
00000150: f7b5 3e3d 3e9a 73bc f8a7 e23c 865a 493c
00000160: 0227 75bd e370 fcbc 8e01 85bd 9056 5a3e
00000170: b3cd cd3d bbc5 58bc 798e a6bd 8235 113e
00000180: ebd2 0f3e 5b43 0b3e 06f9 983d 206e 3f3d
00000190: 5845 bbbd 7372 cdbd 1a11 f0bb d3c4 65bd
000001a0: 532c b63d 525e 5f3c 57d0 f8bd 36d1 6bbd
000001b0: 6d0a 093e a4f7 423e d1df cbbc aa2a ba3d
000001c0: 1e30 f23d bb51 223e 5399 a73e 1021 94bd
000001d0: 4de5 fb3d e1d7 463e 9085 c93e 76b0 273e
000001e0: f299 6c3c 75be ee3d bd41 2c3e 7383 0c3e
000001f0: ebbe f1bb 0970 8fbc 6cd1 823d ac23 b63c
00000200: 5d5e 2a3e 8c29 f6bd 200e 1fbd 3585 a5bd
00000210: b2ef 25bd a02e be3c e98c 64be 4c53 133d
00000220: 8564 23be 2caf 8ebd 0d98 15bd b91b 13be
00000230: ee83 99bd 742e 3bbe f230 37be 65ea 0bbe
00000240: 6c98 5abc 7df9 c7bc 67c5 9abd a882 7bbd
00000250: f9d2 afbd ea69 22be adc7 b1be 55dc 68be
00000260: 0ca7 a7bd c9be 623d dfc0 953d a7ec 58be
00000270: ef6f c7be 5bfe 8bbe 438c 2ebd 4fcc 14bd
00000280: 6d91 cfbd 2801 febe 6539 12bf 69ea 4bbe
00000290: 6fe7 63be dabf 673d 7a3f 1bbc 6476 52bc
000002a0: 4a05 873d 4edf b83d eee8 3bbd 8e03 6ebd
000002b0: a9cf 503d a4eb 613b 900b 773d 2319 0dbe
000002c0: 1e02 2cbd ad0b 04bc c3c6 b2bd e2ff 52bd
000002d0: 2d6b 073c aada ba3d 131d f23d a9ad 373d
000002e0: 9475 aa3b dd80 c93d 0c7f 133e 94c8 453e
000002f0: fb53 f53d b3b2 343e e858 d83b c951 433d
00000300: 1ea8 633e bf56 b83d cfda a83d f6a2 a2bd
00000310: 8314 23be 71a2 033d b06b e4bc ba11 243d
00000320: 2121 783e bbc6 ca3d 922e 0d3e 6c37 613e
00000330: 239f c53d 88ae 0b3e 611e 053d 3303 113d
00000340: 8901 56bb 2208 9ebb 1bb6 89be 2bde 7ebe
00000350: 34ec 28be 434c 71bd 9d61 b5bd 41c3 28be
00000360: ab0c 52be a12a 51be 1ccb 523d f28c ee3c
00000370: 0ecf c33d a226 86bc 09bc 53be 64bd aabd
00000380: 8c1e 553d cb07 4c3e 05c9 993d a08e 3a3e
00000390: 2c80 d53d c0ca 223e d628 453e 8b4e 1e3e
000003a0: f350 523e 45c7 b33d 09d9 953d 5980 093e
000003b0: d4c4 173e 7920 103e a5b1 ed3d 7dfa 9dbd
000003c0: c42d cabc 5d82 f83d 28ce 153e 2db8 343e
000003d0: 01fb cd3c 306e b8bb b406 2abd 484e 8e3e
000003e0: b3b1 d53d c3d7 7bbb 73c3 923d 607b 8ebc
000003f0: 760b 563c aa82 143e 1110 033d 7e4e c33d

net.3.bias f4 [6]
-0.06351143 -0.08224108 -0.01652107 0.053882685 0.116265066 0.047386196
00000000: 4812 82bd 036e a8bd 3257 87bc 17b4 5c3d
00000010: 611c ee3d 0718 423d

net.7.weight f4 [50, 96]
0.13937679 -0.09155131 -0.19998345 -0.12049344 0.027271545 0.049391586 -0.06394809 0.086286865
0.10306619 0.03744457 0.12498544 0.22571015 0.0037840544 0.036432765 0.046541672 0.15840434
-0.15313102 -0.04997039 0.12410913 -0.0013616577 -0.27290547 -0.1010004 0.10802613 0.0046635712
-0.17431362 -0.030784031 0.043966748 -0.03465221 0.006346955 0.07811857 -0.017915076 -0.06774446
-0.15521593 0.27280495 0.046606775 -0.036238894 -0.09496873 0.04029281 0.008683562 -0.030651096
-0.2566225 0.0917314 -0.094910875 -0.23066783 -0.24577902 -0.059060324 -0.26726824 -0.3319179
0.028317101 0.013701253 0.17912476 0.0341823 0.022788238 -0.046035044 -0.11441826 -0.113707714
0.2295133 -0.000114392766 -0.023679433 0.009780295 0.11345683 0.09536888 -0.09754881 0.026491934
-0.0263217 0.054943718 -0.05888763 0.16357577 -0.10344389 0.025974045 0.10103045 0.20251298
0.019140411 0.15807389 0.1288973 -0.122536175 0.31701073 0.06900174 0.03577095 -0.22455871
-0.1020145 0.032364838 -0.03964279 0.047198627 -0.078379914 -0.28533998 -0.21573962 -0.103909016
-0.06730777 -0.08804298 -0.010185518 0.3222755 -0.04200615 -0.035494734 0.011555536 0.13693826
-0.26469675 -0.12111236 0.06366854 0.18134677 -0.10575339 -0.095292985 -0.046806574 0.035805132
0.08530282 -0.016907148 -0.023530843 -0.096965544 -0.10693241 0.047130946 0.06486589 -0.121858425
0.01779814 0.0947783 -0.0046180114 0.018516613 0.17086908 0.26471525 0.08871429 0.12837875
0.09002041 -0.054421254 0.033519536 -0.005602805 0.12805223 0.09033367 -0.12151246 -0.13180506
0.21399519 0.003442106 -0.17760757 -0.1784307 0.33777922 0.17210962 0.06865663 0.04315261
0.09323449 0.29088828 0.113654934 -0.029089533 -0.11328788 0.056866787 0.071843095 -0.04710339
0.036576085 -0.25503933 -0.08901926 0.14210434 0.093475334 -0.16016729 -0.009076477 0.17815451
0.24610566 -0.12877335 -0.068455614 0.04995122 0.031639986 0.11426656 0.056223836 -0.12964554
0.048060156 -0.04169217 0.03137934 -0.08309206 0.06638423 0.102728315 -0.07799612 -0.07217769
0.23685224 0.023178106 -0.016162127 0.06921897 0.07702447 -0.055008247 0.05922988 0.018872447
-0.006765746 0.114385076 0.1282512 0.169461 -0.10184845 -0.30369392 -0.22746797 -0.05576673
-0.018827904 -0.24186751 -0.21924904 -0.22398224 0.041542176 0.0787451 -0.025656497 -0.36886647
0.12905571 0.04926721 0.017669884 0.1466895 0.07669191 -0.018678341 0.021985814 -0.033245236
-0.07674689 -0.1281855 0.14871567 -0.02358426 0.019325513 -0.04665645 -0.038770154 -0.34085864
0.0702324 -0.11795222 -0.10473935 -0.00086211355 0.12952471 0.052373294 0.07599357 -0.03926029
-0.057837106 -0.06482068 0.107020244 -0.030693885 -0.13092281 0.057819616 0.19613965 0.016067712
-0.19021967 -0.07078479 -0.034501098 0.15857509 -0.15950027 0.10164833 -0.08851715 0.053346906
0.10605528 -0.15637955 -0.05147815 -0.05206673 -0.16114034 -0.20391493 -0.13450815 0.08929627
-0.0625388 0.0698658 0.04980844 0.011381701 -0.020365069 -0.06731581 0.059697844 0.10392353
-0.3282821 0.13396297 0.02011219 0.1784125 -0.15712072 -0.061844498 -0.06424085 -0.075828925
00000000: cab8 0e3e 417f bbbd 76c8 4cbe 44c5 f6bd
00000010: 9368 df3c d54e 4a3d 37f7 82bd 2bb7 b03d
00000020: 5e14 d33d 7a5f 193d 5ef8 ff3d 9020 673e
00000030: e6fd 773b 863a 153d 7ba2 3e3d bf34 223e
00000040: 61ce 1cbe c0ad 4cbd ed2c fe3d a779 b2ba
00000050: 44ba 8bbe 4cd9 cebd ce3c dd3d dfd0 983b
00000060: 457f 32be cb2e fcbc 7a16 343d 7aef 0dbd
00000070: 1efa cf3b a1fc 9f3d a3c2 92bc 9cbd 8abd
00000080: edf0 1ebe 17ad 8b3e bfe6 3e3d 3c6f 14bd
00000090: f77e c2bd 130a 253d 8045 0e3c 0218 fbbc
000000a0: 0664 83be acdd bb3d a260 c2bd 3034 6cbe
000000b0: 7fad 7bbe 3de9 71bd 62d7 88be 25f1 a9be
000000c0: 44f9 e73c 387b 603c 7b6c 373e bd02 0c3d
000000d0: 66ae ba3c 3e8f 3cbd 1f54 eabd 97df e8bd
000000e0: 8905 6b3e 26e6 efb8 5ffb c1bc 883d 203c
000000f0: 0e5c e83d c250 c33d acc7 c7bd 9d05 d93c
00000100: 9ba0 d7bc aa0c 613d 2834 71bd 6880 273e
00000110: 64da d3bd 85c7 d43c 0de9 ce3d 905f 4f3e
00000120: 5acc 9c3c 1fde 213e a7fd 033e 3ff4 fabd
00000130: 3b4f a23e c950 8d3d 8f84 123d b8f2 65be
00000140: faec d0bd fe90 043d 7a60 22bd 5953 413d
00000150: a685 a0bd 1518 92be d9ea 5cbe 40ce d4bd
00000160: a8d8 89bd e14f b4bd 29e1 26bc 4b01 a53e
00000170: a40e 2cbd ed62 11bd 6e53 3d3c 8b39 0c3e
00000180: 5586 87be c209 f8bd a764 823d f8b2 393e
00000190: 3c95 d8bd f828 c3bd 40b8 3fbd 67a8 123d
000001a0: 3fb3 ae3d dc80 8abc c1c3 c0bc df95 c6bd
000001b0: 61ff dabd 610c 413d 68d8 843d e990 f9bd
000001c0: 68cd 913c 201b c23d b052 97bb 27b0 973c
000001d0: 4ef8 2e3e c288 873e d6af b53d b875 033e
000001e0: 9f5c b83d d2e8 5ebd c84b 093d bc97 b7bb
000001f0: 2020 033e dc00 b93d 86db f8bd e8f7 06be
00000200: 8e21 5b3e f594 613b c2de 35be 8ab6 36be
00000210: 66f1 ac3e 813d 303e d99b 8c3d cbc0 303d
00000220: b9f1 be3d 4fef 943e ebc3 e83d 2c4d eebc
00000230: 7a03 e8bd 26ed 683d 7922 933d 7cef 40bd
00000240: ced0 153d 8494 82be bb4f b6bd cd83 113e
00000250: ff6f bf3d e502 24be 81b5 14bc 236e 363e
00000260: 1f03 7c3e 29dd 03be 7532 8cbd a799 4c3d
00000270: ee98 013d 9604 ea3d f74a 663d cdc1 04be
00000280: bada 443d 69c5 2abd 9f87 003d 2c2c aabd
00000290: 75f4 873d 3963 d23d 6ebc 9fbd e6d1 93bd
000002a0: 6589 723e 03e0 bd3c 7066 84bc adc2 8d3d
000002b0: 01bf 9d3d 5450 61bd 089b 723d 649a 9a3c
000002c0: 31b3 ddbb b942 ea3d 4854 033e 2f87 2d3e
000002d0: ec95 d0bd c57d 9bbe 5ded 68be a86b 64bd
000002e0: fa3c 9abc 1eac 77be d282 60be 9a5b 65be
000002f0: 2128 2a3d 1c45 a13d 932d d2bc 11dc bcbe
00000300: 2e27 043e 6acc 493d 6fc0 903c c635 163e
00000310: a610 9d3d 5203 99bc 981b b43c 282c 08bd
00000320: 792d 9dbd 0f43 03be ec48 183e c733 c1bc
00000330: 8a50 9e3c d51a 3fbd 74cd 1ebd 0685 aebe
00000340: 01d6 8f3d ef90 f1bd 9681 d6bd 76ff 61ba
00000350: 20a2 043e 6185 563d 84a2 9b3d 66cf 20bd
00000360: 9ae6 6cbd b4c0 84bd 6e2d db3d be71 fbbc
00000370: a110 06be 43d4 6c3d d5d8 483e 6fa0 833c
00000380: f2c8 42be 9ef7 90bd 0651 0dbd 8261 223e
00000390: 0a54 23be 002d d03d 7b48 b5bd 4982 5a3d
000003a0: 8333 d93d f621 20be c1da 52bd ec43 55bd
000003b0: f901 25be 13cf 50be 81bc 09be f6e0 b63d
000003c0: 5814 80bd cd15 8f3d ef03 4c3d 507a 3a3c
000003d0: a5d4 a6bc dfdc 89bd ba85 743d dcd5 d43d
000003e0: 9714 a8be 972d 093e 52c2 a43c c4b1 363e
000003f0: 41e4 20be a850 7dbd b590 83bd 324c 9bbd

net.7.bias f4 [50]
0.10756815 0.046794854 -0.020855676 0.02683572 0.095723994 -0.0076933154 0.12573686 0.063118845
-0.015493383 0.11419961 -0.080200054 0.038755596 0.011802332 -0.030554641 -0.021279564 0.11348306
-0.04983791 0.05485801 -0.015005514 0.011645705 -0.0076487483 0.09953902 0.018084837 -0.08131577
-0.04246101 -0.024520982 -0.052121855 -0.11616111 -0.12526898 -0.064100124 0.054970283 0.026604237
0.01744531 -0.061639424 0.06187265 0.108495675 -0.03657124 -0.053181723 -0.07056345 -0.07610154
0.0030777948 -0.09394737 0.028461818 0.006853472 0.011736831 -0.0925508 0.11367467 -0.033303965
0.07154352 0.12743823
00000000: b14c dc3d f6ab 3f3d 86d9 aabc 95d6 db3c
00000010: f10a c43d 3518 fcbb 2ac1 003e 7444 813d
00000020: f5d7 7dbc 7ce1 e93d ed3f a4bd 30be 1e3d
00000030: 915e 413c ba4d fabc 7b52 aebc ce69 e83d
00000040: d622 4cbd cbb2 603d b0d9 75bc a1cd 3e3c
00000050: 5aa2 fabb 1ddb cb3d a726 943c e288 a6bd
00000060: 99eb 2dbd 3ae0 c8bc ba7d 55bd e0e5 edbd
00000070: 8346 00be ed46 83bd 8528 613d 21f1 d93c
00000080: 77e9 8e3c 9f79 7cbd 2d6e 7d3d fb32 de3d
00000090: b9cb 15bd 14d5 59bd 9283 90bd 20db 9bbd
000000a0: d4b4 493b 7b67 c0bd c228 e93c 1793 e03b
000000b0: d64b 403c 468b bdbd 44ce e83d bd69 08bd
000000c0: 6985 923d 2b7f 023e

net.9.weight f4 [10, 50]
0.049503624 0.1612005 -0.1624091 -0.15535252 -0.029878745 -0.2160522 0.14828871 0.03161731
0.22988923 -0.006847161 -0.099865675 -0.17730251 -0.08091439 0.043192983 0.17333964 -0.12878133
-0.14921 -0.2419666 0.114137754 -0.18466403 -0.3692619 -0.06380664 0.21217042 -0.15619136
-0.055521056 0.023642207 -0.12915209 0.15658708 -0.16239846 -0.072457485 0.10413798 -0.25868043
0.10323798 -0.040196545 -0.13009219 -0.09540503 0.022186304 -0.20626698 -0.12647648 -0.03441832
0.12934983 0.12925605 -0.34028772 0.12806804 0.0485752 0.039059214 -0.024432404 0.0967396
0.108407244 0.05780968 0.120407596 -0.17902818 -0.14537965 0.16024686 -0.1646648 -0.24846394
0.22324787 -0.083943464 0.18876056 -0.1124085 0.09891218 -0.0805483 -0.20231938 0.11625087
0.13088495 0.1921666 0.07030271 -0.12067073 0.06452332 0.041526757 0.06699617 -0.011902016
-0.42865995 -0.14571212 -0.050259124 0.18562566 -0.11972928 0.09874823 -0.009912995 0.06631612
0.30679175 0.07804677 0.06581186 0.21231608 0.030750796 0.11875184 0.17252494 0.10517372
0.04624801 -0.0654047 -0.16511804 -0.24806984 0.07086633 0.22254364 -0.25466105 -0.11756752
-0.12657765 -0.14283872 -0.15718266 0.0753427 0.17182417 -0.2834918 -0.19044313 0.086139806
-0.053190555 0.044672888 -0.38358882 -0.39214948 0.19412455 -0.06637658 -0.12653269 0.1501731
-0.06274131 -0.047239445 0.0034263355 0.13009155 0.29001257 0.07023119 -0.073310725 0.09148561
0.30214265 -0.3436102 0.0058130533 0.14875896 0.05595888 0.035044197 -0.38455987 -0.15041189
-0.03436354 0.091321684 -0.28581604 -0.09686807 -0.061030935 0.14683546 0.025736384 -0.19725876
-0.26396027 0.06695993 -0.22599694 0.08933299 0.10752113 0.035514627 -0.12920874 0.22633815
0.06935947 0.028793361 -0.043779757 0.1834215 0.041713353 -0.18988915 -0.08935871 -0.08006872
-0.010259381 -0.10917172 0.07887093 -0.012027755 -0.2275092 -0.043139275 -0.04725122 0.085056365
-0.09284018 -0.16717054 -0.044410355 0.16560669 0.12060028 0.032844372 -0.17721108 0.22691238
0.030640202 0.17668074 -0.07923088 -0.20294572 -0.110720664 -0.2235416 -0.019174786 -0.22095092
0.1336625 -0.19360954 -0.020567862 0.15738621 -0.21135914 -0.15477827 -0.13200729 0.16972432
-0.2004685 -0.39829153 -0.014792828 0.04455296 0.14651196 0.11771348 -0.27349418 -0.074253045
0.09473188 0.13524279 0.18223262 -0.086410105 -0.16896805 -0.01296343 0.12515046 0.08791199
0.12932038 -0.26068068 -0.094499156 0.079525046 0.10425039 0.04013265 0.15273392 -0.038808968
-0.19812109 0.05730381 -0.06974127 0.17094952 -0.18806714 -0.5570714 -0.19356358 -0.021896813
-0.21934932 -0.04519512 0.14885403 -0.1401145 0.005873146 -0.17217027 -0.007839442 0.13293444
-0.08251264 0.13978226 0.15510258 0.14489494 0.059388414 -0.008645214 -0.3313105 0.2213964
0.112952545 -0.2778968 -0.22309974 -0.05160483 -0.4231973 0.10778163 -0.04591902 -0.07337555
0.036504064 -0.05321632 -0.09704899 -0.010338399 -0.020080745 -0.044894934 0.239381 -0.15630841
-0.1299474 -0.07150206 -0.20928381 0.16109793 -0.20997554 -0.26326495 0.0004861949 0.18895353
00000000: 50c4 4a3d be11 253e 924e 26be bb14 1fbe
00000010: 45c4 f4bc ca3c 5dbe ffd8 173e 2781 013d
00000020: 1568 6b3e 265e e0bb 6086 ccbd ca8e 35be
00000030: 72b6 a5bd 20eb 303d f27f 313e 41df 03be
00000040: 82ca 18be 18c6 77be 0ec1 e93d 9118 3dbe
00000050: e50f bdbe 0ead 82bd 3443 593e a1f0 1fbe
00000060: 0c6a 63bd 4dad c13c 7240 04be 5d58 203e
00000070: c84b 26be 9764 94bd 4b46 d53d c371 84be
00000080: 6f6e d33d 22a5 24bd e336 05be b663 c3bd
00000090: 0dc0 b53c a737 53be 0d83 01be 39fa 0cbd
000000a0: 4874 043e b35b 043e 313a aebe 4524 033e
000000b0: caf6 463d 8efc 1f3d 7726 c8bc 691f c63d
000000c0: 9e04 de3d d8c9 6c3d 4298 f63d 2a53 37be
000000d0: 67de 14be c117 243e e49d 28be 556d 7ebe
000000e0: 179b 643e 8dea abbd 734a 413e 6d36 e6bd
000000f0: 7892 ca3d 82f6 a4bd d02c 4fbe f014 ee3d
00000100: b406 063e 52c7 443e defa 8f3d 3722 f7bd
00000110: cd24 843d f617 2a3d 4a35 893d ac00 43bc
00000120: 5179 dbbe 8f35 15be 83dc 4dbd a714 3e3e
00000130: a034 f5bd 833c ca3d 1d6a 22bc bfd0 873d
00000140: cf13 9d3e fcd6 9f3d 5ec8 863d 6369 593e
00000150: 18e9 fb3c 2a34 f33d 61aa 303e 5265 d73d
00000160: 8e6e 3d3d e6f2 85bd b414 29be 0506 7ebe
00000170: 5e22 913d 7be2 633e ef62 82be 3dc7 f0bd
00000180: 929d 01be 5044 12be 7ef4 20be 464d 9a3d
00000190: adf2 2f3e d625 91be 8603 43be 116a b03d
000001a0: 57de 59bd ebfa 363d c165 c4be d1c7 c8be
000001b0: 96c8 463e 72f0 87bd c991 01be fac6 193e
000001c0: 847e 80bd 267e 41bd 5f8c 603b b836 053e
000001d0: 877c 943e 5fd5 8f3d ef23 96bd cf5c bb3d
000001e0: 71b2 9a3e aded afbe 6d7b be3b 4554 183e
000001f0: 2335 653d 818a 0f3d 08e5 c4be 9305 1abe
00000200: c9c0 0cbd dd06 bb3d 7b56 92be c462 c6bd
00000210: 93fb 79bd 095c 163e 1cd5 d23c 33fe 49be
00000220: cd25 87be 4a22 893d be6b 67be 37f4 b63d
00000230: 0a34 dc3d c977 113d 4c4f 04be 30c5 673e
00000240: 560c 8e3d 0ee0 eb3c 6752 33bd d8d2 3b3e
00000250: 9fdb 2a3d 4d72 42be b301 b7bd 12fb a3bd
00000260: f616 28bc 6c95 dfbd 1587 a13d 1010 45bc
00000270: 2cf8 68be cfb2 30bd 7f8a 41bd 0832 ae3d
00000280: fe22 bebd c12e 2bbe a2e7 35bd cd94 293e
00000290: 48fd f63d d287 063d d276 35be b85b 683e
000002a0: 2901 fb3c cceb 343e cd43 a2bd 01d1 4fbe
000002b0: 84c1 e2bd 17e8 64be 7114 9dbc f540 62be
000002c0: d3de 083e 9441 46be ef7d a8bc da29 213e
000002d0: 886e 58be 327e 1ebe eb2c 07be 36cc 2d3e
000002e0: 9d47 4dbe deec cbbe 9e5d 72bc 2a7d 363d
000002f0: 3b07 163e c413 f13d 6e07 8cbe fb11 98bd
00000300: ca02 c23d 167d 0a3e 309b 3a3e c8f7 b0bd
00000310: f605 2dbe 9164 54bc 7127 003e 340b b43d
00000320: 906c 043e f077 85be c688 c1bd 07de a23d
00000330: 3a81 d53d 2262 243d 4866 1c3e 27f6 1ebd
00000340: 41e0 4abe 66b7 6a3d 83d4 8ebd 640d 2f3e
00000350: ac94 40be 3b9c 0ebf 8835 46be f260 b3bc
00000360: 1c9d 60be 851e 39bd 316d 183e 2d7a 0fbe
00000370: 8573 c03b 674d 30be 0171 00bc f71f 083e
00000380: 63fc a8bd 1523 0f3e 36d3 1e3e 575f 143e
00000390: 4441 733d a8a4 0dbc 88a1 a9be bdb5 623e
000003a0: aa53 e73d 7d48 8ebe 4274 64be 965f 53bd
000003b0: 51ad d8be 9dbc dc3d 9515 3cbd ec45 96bd
000003c0: 4985 153d 5bf9 59bd 9fc1 c6bd 6362 29bc
000003d0: 6080 a4bc c0e3 37bd 4b20 753e 500f 20be
000003e0: ee10 05be ac6f 92bd 7f4e 56be dbf6 243e
000003f0: d403 57be aaca 86be fae7 fe39 097d 413e

net.9.bias f4 [10]
-0.086475655 0.004834417 0.03752818 0.032803964 0.013055253 0.093083404 -0.074957825 0.089162454
-0.020715311 0.04804282
00000000: 261a b1bd 076a 9e3b 26b7 193d 735d 063d
00000010: b3e5 553c 83a2 be3d 7d83 99bd ce9a b63d
00000020: 28b3 a9bc 8cc8 443d
